model/EncoderDecoderModel.pt (torch, 871016 bytes, 10 tensors)

weight f4 [132, 128]
-0.046450697 0.0065020546 -0.1836783 0.23714945 0.021812348 0.08282768 0.016557997 -0.029076671
0.005217754 0.33808285 -0.09117072 -0.50997823 -0.14773981 -0.04040339 -0.04952057 -0.20546773
-0.13620703 0.08195764 -0.021580385 -0.025610156 0.006001481 0.07758535 -0.02236237 -0.16282752
0.0073929545 0.071032666 0.012460187 -0.15205199 0.024849925 0.044156212 -0.17181306 0.035156023
-0.029511025 0.022822322 0.008617153 0.12319494 0.12168721 0.030423969 -0.034110438 0.052991077
0.0007281546 -0.073158205 0.07230735 -0.3595606 -0.03072233 1.1900549 0.0027876052 0.017740669
0.21169524 0.021536056 0.042680584 -0.013125285 0.042659566 0.09972626 0.005147669 -0.030021558
-0.035858598 -0.012224979 0.017612632 0.110919416 0.025788177 0.04532166 0.06912672 -0.009567513
-0.023632748 -0.039212644 -0.028768979 -0.1307486 -0.024107192 -0.048633534 0.015060936 -0.03542277
-0.8164265 0.017770167 0.0299016 -0.014212158 -0.055922434 -0.042245507 -0.036575396 -0.0008094072
0.02388961 0.01348937 0.046103835 -0.5986624 0.008841096 -0.288265 0.09225348 0.06968777
-0.15256763 0.11125262 0.1367977 0.03948767 -0.026735531 -0.11935535 0.011693161 -0.18225506
-0.039966855 0.027163759 -0.0066539724 0.034749188 0.13079189 -0.108716935 0.030152993 -0.0061534047
0.0019561916 -0.008783614 -0.002198658 0.03398655 -0.01672078 -0.01800896 0.015016871 -0.018534038
-0.00022373704 -0.031529225 0.009276532 0.03575008 -0.105386 0.00032079147 0.061200056 0.007136321
-0.0016801223 0.28317568 -0.0033311385 0.0036937732 0.020030007 0.007409005 0.028977146 -0.05694093
0.0028123597 -0.037756678 0.015838198 0.03134146 -0.0068344777 0.0026101605 -0.03386322 0.034544524
0.0010520251 -0.11265594 0.105844215 0.26826027 0.09844402 -0.05447582 -0.05915974 0.21850164
-0.15355948 -0.069863796 0.051613167 -0.15392542 0.042896945 -0.10193486 -0.07040544 0.1553706
0.0041182954 0.01869623 -0.0869176 0.0011767377 -0.020106573 -0.30058783 0.057863984 -0.07780003
-0.046886478 -0.049812663 0.058574528 0.11839688 -0.18289892 -0.021131556 0.042495895 0.031549126
0.023136344 0.08255333 -0.00746442 0.12089935 -0.059962336 1.4519199 -0.1276943 -0.005348364
-0.29653683 0.022001784 -0.029431937 -0.024229653 0.02590633 -0.06978162 0.016213853 -0.022631189
0.008801769 0.08326894 0.039794 -0.07397987 0.06961073 -0.1767246 -0.014207077 -0.011439669
-0.024908729 0.00019570906 0.0017911643 -0.15040395 0.17767087 -0.0348624 -0.00806056 -0.03514992
-1.932277 0.0016830404 -0.007535769 -0.03224595 0.021372356 0.017485688 -0.019916879 -0.00635981
-0.036095 -0.011398925 -0.00253268 0.48422018 -0.01564602 0.13107231 0.05699671 -0.0023647565
0.29478338 -0.023959944 -0.13213289 0.02083903 -0.046512634 -0.015768373 0.045282964 -0.18174036
-0.015434155 0.011639346 -0.0019473475 0.0049711354 -0.18772265 -0.03717159 0.07383882 0.18496957
-0.013262991 -0.0012393632 -0.054739907 -0.06426398 -0.039989166 0.018527051 -0.027815236 -0.040521022
-0.0023626152 -0.04111417 -0.011971318 0.04298315 0.08228295 -0.013198692 0.055463467 -0.008990735
-0.026942393 -0.13742894 -0.03211975 -0.00915467 -0.0012440647 0.07250713 0.007381404 0.17659783
00000000: 1643 3ebd 300f d53b 2a16 3cbe 4ed7 723e
00000010: cfaf b23c 8fa1 a93d a3a4 873c 3332 eebc
00000020: b1f9 aa3b 3219 ad3e b7b7 babd ef8d 02bf
00000030: 1b49 17be 067e 25bd 15d6 4abd 2266 52be
00000040: db79 0bbe 68d9 a73d 59c9 b0bc 64cc d1bc
00000050: 12a8 c43b 11e5 9e3d 4a31 b7bc 42bc 26be
00000060: 9940 f23b 9379 913d d025 4c3c 84b3 1bbe
00000070: 1292 cb3c 25dd 343d c3ef 2fbe c3ff 0f3d
00000080: 1bc1 f1bc e1f5 ba3c f62e 0d3c a14d fc3d
00000090: 2537 f93d b03b f93c 63b7 0bbd 2c0d 593d
000000a0: a1e1 3e3a f8d3 95bd e015 943d 5418 b8be
000000b0: 65ad fbbc b853 983f 41b0 363b e154 913c
000000c0: a3c6 583e 626c b03c d6d1 2e3d 6f0b 57bc
000000d0: ccbb 2e3d 483d cc3d c7ad a83b c5ef f5bc
000000e0: 77e0 12bd 474b 48bc 5e48 903c b829 e33d
000000f0: ba41 d33c 34a3 393d 4f92 8d3d 0fc1 1cbc
00000100: 7799 c1bc 709d 20bd ecac ebbc f6e2 05be
00000110: 727c c5bc f533 47bd 25c2 763c 7717 11bd
00000120: 5401 51bf be92 913c 33f4 f43c 1cda 68bc
00000130: ec0e 65bd a009 2dbd 15d0 15bd 662e 54ba
00000140: 25b4 c33c 8502 5d3c 60d7 3c3d f041 19bf
00000150: 3fda 103c 7897 93be 64ef bc3d 76b8 8e3d
00000160: b03a 1cbe 6ad8 e33d b214 0c3e d3bd 213d
00000170: 7904 dbbc 9470 f4bd ac94 3f3c 12a1 3abe
00000180: 49b4 23bd 8886 de3c 9109 dabb 2a55 0e3d
00000190: 4fee 053e fca6 debd 6903 f73c 80a2 c9bb
000001a0: 7333 003b 26e9 0fbc 5c17 10bb 7b35 0b3d
000001b0: 04fa 88bc 8787 93bc 5209 763c b2d4 97bc
000001c0: f49a 6ab9 ca24 01bd 98fc 173c ad6e 123d
000001d0: 9dd4 d7bd e72f a839 e9ac 7a3d cdd7 e93b
000001e0: 8d37 dcba 67fc 903e 3b4f 5abb 3b13 723b
000001f0: f815 a43c 3dc7 f23b 7b61 ed3c e53a 69bd
00000200: 914f 383b bfa6 1abd 1cbf 813c e75f 003d
00000210: c1f3 dfbb 3a0f 2b3b 29b4 0abd 8f7e 0d3d
00000220: 1be4 893a 28b8 e6bd dac4 d83d 6959 893e
00000230: 059d c93d 0a22 5fbd 7c51 72bd e5be 5f3e
00000240: b23e 1dbe c014 8fbd 5468 533d a09e 1dbe
00000250: b5b4 2f3d 39c3 d0bd ba30 90bd 7819 1f3e
00000260: c4f2 863b d628 993c db01 b2bd c43c 9a3a
00000270: 8ab6 a4bc a6e6 99be c902 6d3d 9f55 9fbd
00000280: 090c 40bd 5d08 4cbd d8eb 6f3d 107a f23d
00000290: db49 3bbe 161c adbc 2d10 2e3d a839 013d
000002a0: 6e88 bd3c b811 a93d 1898 f4bb 149a f73d
000002b0: 119b 75bd 83d8 b93f 4bc2 02be 5441 afbb
000002c0: add3 97be 163d b43c 3f1b f1bc 447d c6bc
000002d0: 8339 d43c aae9 8ebd ead2 843c 0b65 b9bc
000002e0: 4c35 103c e888 aa3d 09ff 223d c282 97bd
000002f0: 1290 8e3d 4bf7 34be cdc4 68bc 736d 3bbc
00000300: 640d ccbc 4037 4d39 80c5 ea3a 7e03 1abe
00000310: 5aef 353e e0cb 0ebd 7010 04bc 5df9 0fbd
00000320: da54 f7bf 7799 dc3a 9dee f6bb 5414 04bd
00000330: 1415 af3c 253e 8f3c b928 a3bc f465 d0bb
00000340: 5ad8 13bd 8fc2 3abc 52fb 25bb b5eb f73e
00000350: 152c 80bc d237 063e 6275 693d 08fa 1abb
00000360: d9ed 963e a547 c4bc d84d 07be 9db6 aa3c
00000370: 0884 3ebd ad2c 81bc a17a 393d 251a 3abe
00000380: 8adf 7cbc f5b2 3e3c 243e ffba e8e4 a23b
00000390: 5e3a 40be 3d41 18bd cf38 973d aa68 3d3e
000003a0: 044d 59bc 2172 a2ba f436 60bd d59c 83bd
000003b0: aecb 23bd 0bc6 973c c7dc e3bc 5ff9 25bd
000003c0: 1bd6 1abb 5567 28bd 5923 44bc 190f 303d
000003d0: f783 a83d 543f 58bc a92d 633d e04d 13bc
000003e0: 4bb6 dcbc 2cba 0cbe 0090 03bd 78fd 15bc
000003f0: e20f a3ba 9e7e 943d b4df f13b 10d6 343e

bias f4 [132]
-0.5370091 -0.6374134 0.102997035 0.00046542176 -0.24902058 1.3272425 0.041845076 -0.066237114
-0.08127869 -0.10272558 -0.10567067 -0.009919898 -0.03250719 -0.044614278 0.47377068 -0.06363342
0.4361525 0.51758784 -0.4735106 0.01125826 -0.37429056 -0.37878248 -0.18039453 1.22298
-2.1711378 0.38110608 1.3160259 -0.92394036 0.05809914 -1.4322405 -0.020522155 0.012758593
0.22437403 1.3892552 0.64026827 0.9087633 -0.57554543 0.5921034 0.4979962 -1.7195467
-0.83649474 -1.4883397 0.5609314 -0.25673515 0.38086933 -2.026296 0.06260772 0.7862088
0.43245465 1.1352311 0.09478736 0.22642443 0.17780375 -0.2897492 -1.0601681 -0.21391283
-0.2889983 -0.7221895 0.0057106027 -0.27708513 1.6873207 0.894266 -0.11900248 0.38380793
-0.03706974 3.4877074 -0.13028021 -0.12301122 0.050593477 0.064243324 0.2270578 -1.0162172
0.086010404 0.05681449 -0.1582382 0.29896885 -0.33370554 -0.05057901 0.0465554 0.020181248
0.047154117 0.5536822 0.0046356134 0.041252222 0.09004601 0.0702372 0.073052935 4.9623785
0.14595053 5.241101 2.6009166 0.0058044596 -0.7648205 -0.5121591 0.19287415 -0.07694368
0.60400414 -0.2767172 -0.7652088 0.8408493 -0.9687758 -0.90202576 -0.73772645 -0.547108
-1.4833925 -0.23602667 -0.18925788 2.7106764 -0.57720137 -0.08481164 -0.9276932 0.69015265
-0.11633088 -1.1071852 0.68843067 -1.0620502 -0.45458376 0.09962778 -0.057559345 0.1849581
-0.14861873 -0.34883967 0.23201515 -0.09186501 0.042387176 -0.7287341 -0.82172143 1.3600644
-1.8355262 -0.37458438 -0.04231518 3.197447
00000000: 6e79 09bf 862d 23bf 1cf0 d23d da03 f439
00000010: 40ff 7ebe 15e3 a93f be65 2b3d 53a7 87bd
00000020: 7175 a6bd ca61 d2bd dd69 d8bd 1187 22bc
00000030: 4226 05bd 76bd 36bd 1292 f23e 3d52 82bd
00000040: 614f df3e a380 043f fb6f f2be 9174 383c
00000050: 03a3 bfbe c7ef c1be 58b9 38be 9c8a 9c3f
00000060: ecf3 0ac0 5620 c33e 8973 a83f 5b87 6cbf
00000070: 5df9 6d3d a853 b7bf 141e a8bc 6b09 513c
00000080: 4ec2 653e 1dd3 b13f 9fe8 233f b6a4 683f
00000090: f256 13bf 1794 173f 5cf9 fe3e 1b1a dcbf
000000a0: 8524 56bf ea81 bebf 3399 0f3f ca72 83be
000000b0: 4e01 c33e d5ae 01c0 7a38 803d fb44 493f
000000c0: b26a dd3e 414f 913f e01f c23d cedb 673e
000000d0: 3012 363e 025a 94be 97b3 87bf f70b 5bbe
000000e0: 96f7 93be 69e1 38bf 0220 bb3b 1ade 8dbe
000000f0: 20fa d73f 9eee 643f 92b7 f3bd 7982 c43e
00000100: 71d6 17bd 9936 5f40 2d68 05be 4eed fbbd
00000110: 1b3b 4f3d 0192 833d d781 683e 6813 82bf
00000120: 3926 b03d 50b6 683d 3209 22be 7212 993e
00000130: 74db aabe f02b 4fbd e0b0 3e3d 2553 a53c
00000140: ad24 413d 1ebe 0d3f 58e6 973b 17f8 283d
00000150: 0b6a b83d 85d8 8f3d c79c 953d cecb 9e40
00000160: 0e74 153e 19b7 a740 6b75 2640 5633 be3b
00000170: 47cb 43bf dc1c 03bf cd80 453e a694 9dbd
00000180: 04a0 1a3f e0ad 8dbe b9e4 43bf e641 573f
00000190: b101 78bf 29eb 66bf a4db 3cbf 450f 0cbf
000001a0: cedf bdbf fab0 71be d1cc 41be b97b 2d40
000001b0: 78c3 13bf bab1 adbd 4d7d 6dbf d8ad 303f
000001c0: e23e eebd 3fb8 8dbf fe3c 303f 43f1 87bf
000001d0: 34bf e8be a609 cc3d 59c3 6bbd a865 3d3e
000001e0: 822f 18be 1d9b b2be 6195 6d3e b923 bcbd
000001f0: 2d9e 2d3d 518e 3abf 565c 52bf 9716 ae3f
00000200: 86f2 eabf 86c9 bfbe af52 2dbd f9a2 4c40

weight_ih_l0 f4 [384, 132]
0.71904546 0.80313164 0.035280325 0.1484056 0.5233006 0.6284756 1.9540964 2.392757
4.6515293 -5.5675426 -2.3323867 0.9128902 -2.579838 -0.9430109 2.1886292 -3.4305952
0.12977915 2.5597 1.5933295 2.3147483 -1.9525049 0.36008304 0.77062076 -0.23977888
-0.7104608 2.8106565 1.1506019 -0.69425833 1.0825388 -2.929873 -1.9620711 -1.3696009
4.2822256 0.09681085 0.41176382 1.039749 -0.3621551 -2.2414737 0.33293432 -0.53123784
-0.42053822 0.9542547 0.052314293 -2.8768532 -0.8636197 0.5368426 10.107587 3.8634846
-2.1764455 -2.483724 3.91872 -1.3665676 0.28471723 2.9016397 1.6854664 3.697785
-0.51162094 0.0006276427 -0.1750522 -2.0753648 -1.6261909 -1.7494807 0.13141158 2.7182302
0.973786 2.7936199 2.436236 0.5292287 0.14167657 1.9292741 -1.7849116 -0.23160803
-0.67640615 -0.67900854 -1.0072703 2.6353617 -3.7097151 -1.1798385 -2.2817698 -0.6353518
1.8536326 1.097359 11.106065 3.5721188 2.2132092 2.7895677 -1.8429804 1.3220913
0.15689236 0.55329955 -1.1600426 0.25575382 -0.9728281 -0.29456323 1.0795287 -0.71917266
-1.7266121 -0.85343236 1.0849813 0.16821261 0.09245501 0.24748331 0.29129 0.97946155
-1.7113513 -0.018661102 -0.14522563 -0.40446392 3.4998794 2.2344196 1.5494394 -0.9849299
0.18893941 -3.381026 -1.3881342 -0.7877906 -2.7834594 1.3648772 1.6088583 0.9931934
3.0708363 2.3467262 2.0959861 -3.6393778 -1.4729018 0.66802794 1.2589656 -1.6927361
1.4121205 3.1433036 -0.17850477 1.2842561 0.23913811 0.116459265 -1.3291777 2.6439075
1.5739809 -0.22391923 -0.87141657 0.2220524 -0.8426869 1.932459 -0.62221354 -0.62291473
0.6919441 2.1036038 1.265152 -0.79244435 -0.29215863 0.51989627 -1.6243211 1.8538125
-1.4264721 0.58217335 1.3661904 0.1229207 -0.6413178 0.4069753 0.32383418 0.48079017
-0.13725188 0.40947318 2.9276257 0.65915537 -0.7152886 -0.7842624 -0.4102876 0.4399077
0.6807155 -0.6729603 -0.6168783 -0.38808176 0.3464023 1.3484478 2.6383655 4.4344163
1.801664 0.9097058 -0.7203801 -2.2939491 -1.2043197 0.9181145 -1.1215962 0.388598
-1.2600886 -0.46605715 0.75818145 -1.547221 2.1187987 -0.804586 -1.0501732 -0.13173835
0.18872592 -1.0499709 -0.33521137 -0.58291465 -3.431747 0.44961414 0.17997883 -0.13842462
-1.0897752 -0.33004728 -2.5784316 0.19802772 0.43366605 4.9004607 5.1859994 -1.0483772
3.6017125 -0.17865938 -1.0153068 1.906358 -0.812682 1.746833 0.1432005 -0.22000511
-3.9944322 0.85410845 0.058777533 0.20737524 -1.2395554 0.1695731 -0.4070609 -0.67002606
-0.1435165 -0.43063614 0.24536844 -0.39247906 -0.06754252 2.418872 -3.0876224 -0.7039733
-2.2114942 0.30956173 -0.99394375 0.30024123 0.7261423 0.25413704 0.2447485 0.15125547
-2.1219883 0.9763104 -4.013463 -1.6544012 -2.5241218 1.4374074 1.524639 0.103709586
0.41676643 -0.66162866 1.7561276 -0.17035472 -1.3323581 -2.040313 3.682575 0.0432206
00000000: 5d13 383f 099a 4d3f 1a82 103d a3f7 173e
00000010: 07f7 053f c7e3 203f d51f fa3f ee22 1940
00000020: 54d9 9440 4f29 b2c0 d345 15c0 2cb3 693f
00000030: 111c 25c0 2a69 71bf 8012 0c40 df8e 5bc0
00000040: d3e4 043e 20d2 2340 39f2 cb3f d624 1440
00000050: aeeb f9bf ce5c b83e 6747 453f 9888 75be
00000060: c2e0 35bf cce1 3340 ec46 933f eaba 31bf
00000070: a290 8a3f 0a83 3bc0 2525 fbbf 154f afbf
00000080: fe07 8940 c444 c63d b5d2 d23e 7f16 853f
00000090: 656c b9be 4e74 0fc0 5e76 aa3e 34ff 07bf
000000a0: c950 d7be 094a 743f 8347 563d 5d1e 38c0
000000b0: 2e16 5dbf 846e 093f adb8 2141 5543 7740
000000c0: e24a 0bc0 56f5 1ec0 4fcc 7a40 b0eb aebf
000000d0: 75c6 913e 77b4 3940 5dbd d73f 82a8 6c40
000000e0: 97f9 02bf 6388 243a e240 33be c7d2 04c0
000000f0: 0627 d0bf fcee dfbf c290 063e 7cf7 2d40
00000100: 0a4a 793f abca 3240 4aeb 1b40 887b 073f
00000110: aa13 113e 74f2 f63f fc77 e4bf a82a 6dbe
00000120: f428 2dbf 81d3 2dbf 3cee 80bf c4a9 2840
00000130: f96b 6dc0 f304 97bf 8408 12c0 6aa6 22bf
00000140: d543 ed3f 4276 8c3f 71b2 3141 989d 6440
00000150: 38a5 0d40 4788 3240 c8e6 ebbf 4a3a a93f
00000160: 64a8 203e 0aa5 0d3f 477c 94bf 2af2 823e
00000170: 430b 79bf fed0 96be ff2d 8a3f b31b 38bf
00000180: a001 ddbf 8b7a 5abf abe0 8a3f ed3f 2c3e
00000190: 0d59 bd3d 446c 7d3e f623 953e febd 7a3f
000001a0: 8f0d dbbf 2bdf 98bc 07b6 14be e515 cfbe
000001b0: 06fe 5f40 bb00 0f40 0854 c63f 5e24 7cbf
000001c0: 5579 413e bb62 58c0 62ae b1bf a5ac 49bf
000001d0: 3324 32c0 4cb4 ae3f 12ef cd3f ec41 7e3f
000001e0: 9588 4440 c330 1640 a324 0640 91eb 68c0
000001f0: 0c88 bcbf e103 2b3f c925 a13f 94ab d8bf
00000200: 5dc0 b43f e32b 4940 f4c9 36be 8162 a43f
00000210: 9fe0 743e 3282 ee3d 7f22 aabf c835 2940
00000220: 3578 c93f 154b 65be 2815 5fbf b461 633e
00000230: 54ba 57bf d15a f73f 6349 1fbf 5777 1fbf
00000240: 4023 313f 72a1 0640 80f0 a13f a2dd 4abf
00000250: d195 95be ec17 053f c1e9 cfbf ba49 ed3f
00000260: a396 b6bf 5009 153f 54df ae3f d9bd fb3d
00000270: 672d 24bf 115f d03e 98cd a53e 212a f63e
00000280: c28b 0cbe 78a6 d13e 385e 3b40 68be 283f
00000290: 271d 37bf 6cc5 48bf 3711 d2be 953b e13e
000002a0: 5f43 2e3f 2047 2cbf bceb 1dbf a7b2 c6be
000002b0: a45b b13e f099 ac3f fbda 2840 bde6 8d40
000002c0: ed9c e63f 7be2 683f d56a 38bf 10d0 12c0
000002d0: 2627 9abf 8d09 6b3f 7790 8fbf 51f6 c63e
000002e0: 954a a1bf 0b9f eebe 2e18 423f 560b c6bf
000002f0: 669a 0740 59f9 4dbf 136c 86bf 6be6 06be
00000300: 5e41 413e 7265 86bf d3a0 abbe e539 15bf
00000310: bea1 5bc0 d333 e63e 5f4c 383e 2fbf 0dbe
00000320: c17d 8bbf f5fb a8be 0605 25c0 c7c7 4a3e
00000330: 7a09 de3e 93d0 9c40 b5f3 a540 3931 86bf
00000340: 7582 6640 7cf2 36be 93f5 81bf 8a03 f43f
00000350: ed0b 50bf 3998 df3f 27a3 123e 0549 61be
00000360: c7a4 7fc0 daa6 5a3f b6c0 703d 2d5a 543e
00000370: c0a9 9ebf 92a4 2d3e 496a d0be d486 2bbf
00000380: fdf5 12be 577c dcbe dd41 7b3e 04f3 c8be
00000390: bc53 8abd cdce 1a40 9b9b 45c0 9837 34bf
000003a0: 1f89 0dc0 e07e 9e3e 1973 7ebf 38b9 993e
000003b0: 76e4 393f 401e 823e 5a9f 7a3e b7e2 1a3e
000003c0: a8ce 07c0 7aef 793f 4a6e 80c0 6bc3 d3bf
000003d0: 368b 21c0 f7fc b73f 5f27 c33f b165 d43d
000003e0: 6962 d53e 7f60 29bf cac8 e03f 7871 2ebe
000003f0: b68a aabf 7d94 02c0 4faf 6b40 1508 313d

weight_hh_l0 f4 [384, 128]
-0.033244334 0.032477573 0.0023136141 0.079712726 0.118402615 -0.018879587 0.32792416 -0.026226185
-0.043057702 -0.05439106 -0.05918071 -0.014108394 0.017559258 0.01752903 -0.008143584 0.11461394
0.048031095 0.008401394 0.023147004 0.01171884 -0.0083784005 0.011946391 0.0074281273 -0.043295547
0.016397411 0.038176086 -0.01613114 0.08687371 -0.19290242 -0.15098092 0.10653997 -0.039001867
-0.088089466 0.12734249 -0.08308864 -0.19746996 0.027024874 0.09506793 -0.029574223 0.0782015
0.02939099 -0.019551076 -0.062814556 -0.042527497 0.021879341 -0.08244435 -0.04490752 -0.056785524
0.032069255 0.08445765 0.04678652 0.03546697 -0.032008268 0.044546902 0.004611861 -0.0016650801
-0.11582236 0.012338017 -0.070092976 0.050359648 0.14982045 -0.06174475 -0.01008609 0.023714075
0.0039845663 0.046582587 -0.049448594 0.0069714845 -0.05368625 -0.068313055 -0.09439286 0.062583014
0.012224147 -0.1841072 0.02619491 -0.12762216 -0.11823813 0.026863948 -0.18425635 -0.06670323
-0.02920901 0.040559247 -0.022420207 -0.084779546 -0.02498455 -0.048264835 0.1879287 -0.057180002
0.006440958 0.0030822316 0.053936385 0.11115243 -0.057657786 0.096789725 -0.09631407 -0.017922472
-0.084407404 -0.073578104 -0.005382999 0.03356442 0.026461411 -0.0357463 0.08831458 -0.044287574
0.042092588 0.12150074 -0.078906596 0.03867318 0.035794012 -0.053051073 0.006728516 0.03335468
-0.042783327 0.013322454 -0.12109578 -0.046420325 -0.12057256 -0.015665613 -0.026211228 -0.057755027
0.0065271175 0.053796176 0.02861286 -0.010821395 0.021820903 -0.18893114 0.10326848 0.045444306
-0.012183164 -0.010348938 0.008534092 -0.0030792404 0.0062660244 0.004145946 0.9074562 0.030655667
-0.034846947 -0.023607317 -0.015740454 -0.018395042 0.021833502 0.0086134365 -0.02421283 0.018490868
-0.035132635 -0.012584168 -0.006084039 0.0057650814 0.036019217 -0.018478233 0.0036098256 0.023759078
-0.013768518 -0.03367672 -0.00861791 -0.0076650195 -0.21493137 0.0019470286 -0.05477594 -0.040439207
-0.01069475 -0.006204251 -0.007970612 -0.39608485 0.0107816495 0.016801542 0.0016389359 0.008136532
-0.026026443 0.0066887094 -0.0023246438 0.037397724 -0.033112418 0.008980653 -0.023589851 -0.03818294
0.011186489 0.034785673 -0.0053941603 0.010882424 0.053107522 -0.026689757 -0.025418391 0.03085078
-0.015092856 0.013177244 -0.0018131743 -0.0101442905 0.08611534 -0.006739878 0.00048720845 0.005247963
0.016475083 0.015481355 0.0039275885 -0.021036297 0.057995882 -0.032020748 0.002844436 -0.009267375
-0.0009999092 0.03365662 -0.0544095 0.040907368 0.022310438 -0.0031589926 0.04548033 0.034222733
-0.0030467142 -0.022341039 0.01798505 0.021207273 0.013327055 0.029631374 0.21601665 0.0045368606
0.021818552 0.02436923 -0.005786096 -0.029630512 -0.0071350383 0.06970907 -0.009975865 0.03283273
-0.029814627 0.001378414 0.020074489 0.03295147 0.027671032 -0.00084185996 0.0048274784 0.00908485
0.052704565 0.023426212 -0.022025216 0.015046895 -0.011876957 -0.011343145 -0.0035765534 0.0017528326
0.003949604 -0.0044841073 -0.0030319865 -0.018812085 0.0005979897 0.00020145623 -0.0015471774 0.0013263357
-0.0027977172 0.043326043 0.05209212 0.017951142 0.037247494 0.026613157 0.03246094 -0.027280994
00000000: 362b 08bd 3407 053d 01a0 173b 6d40 a33d
00000010: 127d f23d 5da9 9abc ade5 a73e 4cd8 d6bc
00000020: 465d 30bd 29c9 5ebd 7967 72bd e526 67bc
00000030: 6fd8 8f3c 0a99 8f3c ab6c 05bc b7ba ea3d
00000040: 41bc 443d 00a6 093c c99e bd3c 6100 403c
00000050: 8f45 09bc ccba 433c a667 f33b ac56 31bd
00000060: dd53 863c 875e 1c3d 7425 84bc d8ea b13d
00000070: 3688 45be be9a 1abe a131 da3d 6cc0 1fbd
00000080: 4068 b4bd 1266 023e 602a aabd 9135 4abe
00000090: 4563 dd3c fab2 c23d a445 f2bc 1c28 a03d
000000a0: 60c5 f03c 9429 a0bc eba4 80bd 5031 2ebd
000000b0: 4e3c b33c 95d8 a8bd f3f0 37bd f097 68bd
000000c0: 0d5b 033d 22f8 ac3d 39a3 3f3d d045 113d
000000d0: 1a1b 03bd d076 363d 181f 973b d13e daba
000000e0: 4634 edbd 6525 4a3c e88c 8fbd eb45 4e3d
000000f0: 886a 193e 10e8 7cbd 2140 25bc 0544 c23c
00000100: f790 823b 62cd 3e3d 9c8a 4abd 0d71 e43b
00000110: 1de6 5bbd b7e7 8bbd 0b51 c1bd 862b 803d
00000120: ca47 483c 9986 3cbe b596 d63c 62af 02be
00000130: d526 f2bd c811 dc3c b2ad 3cbe b49b 88bd
00000140: bc47 efbc 7421 263d 95aa b7bc e6a0 adbd
00000150: 66ac ccbc 59b1 45bd 6270 403e 9435 6abd
00000160: ac0e d33b 44ff 493b 66ec 5c3d e3a3 e33d
00000170: 922a 6cbd b139 c63d 5040 c5bd 26d2 92bc
00000180: cadd acbd 1eb0 96bd de63 b0bb d87a 093d
00000190: 9ac5 d83c b66a 12bd 46de b43d e366 35bd
000001a0: 4769 2c3d 61d5 f83d c899 a1bd c567 1e3d
000001b0: be9c 123d 154c 59bd e27a dc3b eb9e 083d
000001c0: 923d 2fbd 6c46 5a3c 1001 f8bd 3d23 3ebd
000001d0: bfee f6bd 2c55 80bc eeb8 d6bc 8990 6cbd
000001e0: 6ee1 d53b 6159 5c3d 8465 ea3c 384c 31bc
000001f0: c0c1 b23c 2a77 41be 6d7e d33d cf23 3a3d
00000200: e59b 47bc 988e 29bc 94d2 0b3c 15cd 49bb
00000210: 3953 cd3b b7da 873b 0d4f 683f 9821 fb3c
00000220: acbb 0ebd 2264 c1bc 20f2 80bc 33b1 96bc
00000230: 2cdc b23c 5f1f 0d3c fc59 c6bc 297a 973c
00000240: 3de7 0fbd d42d 4ebc 9e5c c7bb 02e9 bc3b
00000250: e388 133d aa5f 97bc d392 6c3b 66a2 c23c
00000260: 5a95 61bc 9af0 09bd 2232 0dbc d82a fbbb
00000270: f816 5cbe 7033 ff3a bc5c 60bd 95a3 25bd
00000280: 0839 2fbc 084d cbbb 2b97 02bc a2cb cabe
00000290: 84a5 303c 63a3 893c 90d1 d63a 174f 053c
000002a0: 6835 d5bc f62c db3b 0d59 18bb 5b2e 193d
000002b0: e3a0 07bd 9723 133c 813f c1bc b765 1cbd
000002c0: 8947 373c 6c7b 0e3d 7fc1 b0bb 324c 323c
000002d0: 4687 593d 7aa4 dabc 3b3a d0bc c6ba fc3c
000002e0: 0748 77bc 5ee5 573c 09a8 edba 3d34 26bc
000002f0: 3d5d b03d 32da dcbb 0370 ff39 1bf7 ab3b
00000300: c1f6 863c 82a5 7d3c 00b3 803b 5054 acbc
00000310: 178d 6d3d 3028 03bd b869 3a3b 30d6 17bc
00000320: 630f 83ba 86db 093d 7fdc 5ebd 7c8e 273d
00000330: 61c4 b63c 1a07 4fbb 9549 3a3d 232d 0c3d
00000340: 62ab 47bb 8e04 b7bc 6255 933c e0ba ad3c
00000350: b859 5a3c 7fbd f23c 7833 5d3e f2a9 943b
00000360: d2bc b23c fba1 c73c 4b99 bdbb b0bb f2bc
00000370: 0acd e9bb a1c3 8e3d cf71 23bc 9d7b 063d
00000380: ce3d f4bc e6ab b43a 4173 a43c 1ff8 063d
00000390: 5cae e23c 44b0 5cba d32f 9e3b 9fd8 143c
000003a0: bee0 573d 54e8 bf3c 3a6e b4bc 4087 763c
000003b0: 9197 42bc 99d8 39bc 9c64 6abb 4dbf e53a
000003c0: ae6b 813b 6bef 92bb 4bb4 46bb cd1b 9abc
000003d0: 69c2 1c3a ff3d 5339 a9ca caba 71d8 ad3a
000003e0: e859 37bb a676 313d 8c5e 553d 460e 933c
000003f0: d490 183d d603 da3c c3f5 043d 647c dfbc

bias_ih_l0 f4 [384]
0.13797791 -2.3343492 0.4313235 -1.7494587 -1.3080821 -0.18013301 0.48859957 -0.67403024
0.17830116 -0.6417493 -1.1992328 -1.8051378 1.1482487 -0.45601156 -1.4652787 -1.3964694
-1.7410061 0.8420483 0.40294775 -1.1446586 -2.1819115 0.793565 -0.3170948 0.42657632
0.80535835 0.47532952 -1.7072103 -0.21535632 0.6666926 0.17138138 -2.7934203 0.69811887
0.22119161 0.097651444 0.58123875 0.13017182 0.63875574 0.8688477 -0.94102645 -1.1692505
0.36193353 -1.1930809 1.0239214 0.9800507 0.37450865 -0.24500148 -1.2591442 0.74680376
-0.5203159 -1.3304123 8.9519446e-05 -0.08170115 1.0488197 -1.4585451 0.20226757 -0.09029911
1.1090353 -0.2647347 0.3786867 0.042173266 0.99498856 -0.79961824 0.16971979 -0.079013
-0.48685193 -0.8610257 -0.16339302 -0.2866566 -1.1247718 1.0484705 -1.4308797 -0.10636789
1.486776 -1.2836524 -1.0781399 -0.0770356 0.9027538 -1.0821261 -0.39211538 -0.33968627
1.6597522 -0.41428348 0.10282257 0.12214865 -1.1847819 -0.21151516 0.46069172 -0.18555743
0.53921884 0.54523927 0.5382525 -2.4026299 -0.84006816 0.4152605 0.62250304 0.6165813
0.5256408 -0.027278347 -0.8780173 -0.1432003 -0.43657818 -0.20584914 0.14943098 -1.1818883
1.2853833 0.44992566 0.20837347 0.2909375 0.08890628 -0.87003213 -0.69279426 0.8741363
0.38920167 0.390843 -2.666244 0.30050647 -0.12237933 -0.52405125 -0.6459171 0.89016896
-1.103582 0.5373994 0.3601197 -0.5882555 -1.2337397 -0.9119232 0.019521875 0.46973377
-0.9379236 -3.2516809 -0.9862543 -1.4063594 -1.1618501 -1.1589329 -1.2268679 -2.085784
-1.2214866 -1.4149806 -1.277929 -1.6474408 -0.15898773 -1.0302247 -3.7504516 -1.0669943
-1.5650897 -0.31143984 -0.85833037 -0.06128753 -2.0091405 -0.43144345 -1.2038776 -0.87712544
0.29534125 -0.626508 -2.5012064 -0.7947599 -0.7574541 -0.67436326 -1.9915986 -0.7285809
-0.20951946 -1.3226721 -0.49848258 -1.1687545 0.22329333 -1.0069035 -2.9018238 -1.9742078
-0.95196635 -1.8196886 -1.1074169 -1.132718 -0.8668448 -0.69940716 -1.5245395 -1.2429252
-2.6779742 -0.9885457 -1.2147951 -0.8257348 -0.77500224 -1.3875769 -1.36038 -1.0950184
-0.57580465 -1.0406886 -1.4480057 -0.9723776 -1.0173836 -1.171838 -1.0888298 -1.4137149
-0.80576384 -1.8721535 -1.1476525 -1.1199098 -2.006896 -1.3763778 -1.3806304 -0.70263845
-0.2472928 -1.2205456 -1.403701 -0.5850291 -1.2354089 -0.8403492 -1.7758701 -1.2469018
-1.1249567 -2.170759 -1.2785058 -1.0379496 -1.7901514 -0.71692795 -1.7989266 -0.575869
-1.186443 -1.5747194 -1.180862 -2.3328981 -2.2177114 -0.3957248 -0.84451985 0.010475501
-0.56009364 -0.74646103 -1.099399 0.3393896 -1.2301282 -1.4566666 -1.3982177 -1.333113
-0.9936232 -1.0778579 -0.43690616 -1.155457 -1.2168624 -0.9742371 -0.21538778 -1.439738
-1.143443 0.6751852 -3.4162018 -1.3682714 -0.81541383 -1.2092162 -1.8333848 -0.9486914
-1.5153084 -0.23651491 -0.8079292 -1.3678355 -1.159771 -1.0894198 -2.6327028 -1.0994332
00000000: 154a 0d3e fa65 15c0 6fd6 dc3e 43ee dfbf
00000010: 3c6f a7bf ca74 38be b929 fa3e 3f8d 2cbf
00000020: 9494 363e af49 24bf 7680 99bf c10e e7bf
00000030: d0f9 923f 597a e9be 418e bbbf 82bf b2bf
00000040: 4ad9 debf 7a90 573f 2b4f ce3e 2c84 92bf
00000050: 70a4 0bc0 1327 4b3f 405a a2be 3668 da3e
00000060: f72b 4e3f 645e f33e de85 dabf 5e86 5cbe
00000070: 5eac 2a3f 9a7e 2f3e 66c7 32c0 ebb7 323f
00000080: 0e80 623e 7bfd c73d 10cc 143f c34b 053e
00000090: 7f85 233f ce6c 5e3f 1ce7 70bf 00aa 95bf
000000a0: 5a4f b93e e0b6 98bf db0f 833f 9ae4 7a3f
000000b0: 99bf bf3e abe1 7abe a32b a1bf 882e 3f3f
000000c0: 6c33 05bf f34a aabf 63bc bb38 ef52 a7bd
000000d0: b93f 863f 9bb1 babf 3b1f 4f3e bdee b8bd
000000e0: def4 8d3f 4e8b 87be 39e3 c13e e0bd 2c3d
000000f0: 92b7 7e3f c8b3 4cbf 06cb 2d3e 91d1 a1bd
00000100: a844 f9be 2e6c 5cbf 8050 27be a7c4 92be
00000110: 86f8 8fbf 4834 863f 1127 b7bf 69d7 d9bd
00000120: ad4e be3f b94e a4bf 7d00 8abf d7c4 9dbd
00000130: df1a 673f 1c83 8abf 59c3 c8be 5ceb adbe
00000140: c372 d43f f71c d4be a494 d23d 1229 fa3d
00000150: efa6 97bf 6e97 58be c9df eb3e c402 3ebe
00000160: 3f0a 0a3f cd94 0b3f eaca 093f b0c4 19c0
00000170: b50e 57bf 069d d43e 5c5c 1f3f 46d8 1d3f
00000180: 6590 063f d776 dfbc bec5 60bf 19a3 12be
00000190: 2d87 dfbe 1eca 52be 6f04 193e 1e48 97bf
000001a0: 7187 a43f a85c e63e db5f 553e c3f5 943e
000001b0: 7f14 b63d 6dba 5ebf f75a 31bf 66c7 5f3f
000001c0: 7145 c73e 931c c83e bea3 2ac0 fcdb 993e
000001d0: 04a2 fabd 3928 06bf d35a 25bf 1de2 633f
000001e0: 2d42 8dbf 0293 093f 9c61 b83e ea97 16bf
000001f0: 2feb 9dbf cd73 69bf 57ec 9f3c f280 f03e
00000200: c31b 70bf 8a1b 50c0 297b 7cbf 9603 b4bf
00000210: 81b7 94bf ea57 94bf 020a 9dbf 7c7d 05c0
00000220: ac59 9cbf 161e b5bf 2d93 a3bf 57df d2bf
00000230: aecd 22be 67de 83bf 6607 70c0 4593 88bf
00000240: dc54 c8bf 0b75 9fbe 8abb 5bbf a208 7bbd
00000250: c295 00c0 28e6 dcbe a918 9abf 4b8b 60bf
00000260: f836 973e d462 20bf c413 20c0 6375 4bbf
00000270: 83e8 41bf 12a3 2cbf b4ec febf 4784 3abf
00000280: 458c 56be 524d a9bf 1c39 ffbe bf99 95bf
00000290: 02a7 643e 37e2 80bf 7bb7 39c0 d7b2 fcbf
000002a0: 11b4 73bf 8eeb e8bf d6bf 8dbf e7fc 90bf
000002b0: 8ae9 5dbf 590c 33bf 1c24 c3bf 2c18 9fbf
000002c0: ee63 2bc0 5511 7dbf 687e 9bbf 5b63 53bf
000002d0: 8c66 46bf 1f9c b1bf ef20 aebf 9029 8cbf
000002e0: ef67 13bf 4935 85bf 4058 b9bf bded 78bf
000002f0: a039 82bf cafe 95bf c65e 8bbf 9cf4 b4bf
00000300: 8a46 4ebf baa2 efbf 47e6 92bf 3459 8fbf
00000310: fc70 00c0 262d b0bf 7fb8 b0bf 1de0 33bf
00000320: 533a 7dbe d73a 9cbf 79ac b3bf 78c4 15bf
00000330: e121 9ebf 2021 57bf b64f e3bf 7a9a 9fbf
00000340: 95fe 8fbf b7ed 0ac0 14a6 a3bf 88db 84bf
00000350: ae23 e5bf 9788 37bf 3a43 e6bf 276c 13bf
00000360: 5ddd 97bf 6890 c9bf 7c26 97bf 344e 15c0
00000370: fcee 0dc0 719c cabe 7432 58bf 70a1 2b3c
00000380: 4c62 0fbf 1218 3fbf 1bb9 8cbf 79c4 ad3e
00000390: d774 9dbf 0d74 babf ccf8 b2bf 72a3 aabf
000003a0: 175e 7ebf 3ff7 89bf 2ab2 dfbe 04e6 93bf
000003b0: 26c2 9bbf 9a67 79bf 9d8e 5cbe 5649 b8bf
000003c0: 575c 92bf f0d8 2c3f 0da3 5ac0 8423 afbf
000003d0: f6be 50bf 99c7 9abf 5aac eabf 71dd 72bf
000003e0: a0f5 c1bf f730 72be 73d4 4ebf 3c15 afbf
000003f0: 6073 94bf 1c72 8bbf 347e 28c0 3aba 8cbf

bias_hh_l0 f4 [384]
0.18300018 -2.2788017 0.38342926 -1.7676381 -1.3565567 -0.09109047 0.4158627 -0.7907489
0.22149242 -0.6294589 -1.1757613 -1.7967403 1.1912524 -0.39060298 -1.5536745 -1.4866247
-1.6918392 0.811213 0.42506328 -1.1372045 -2.0665274 0.696649 -0.3640085 0.5505635
0.6982176 0.3549782 -1.7445147 -0.24284491 0.5845197 0.21811919 -2.718756 0.8369801
0.275496 0.13103116 0.5863061 0.0059560738 0.48737404 0.92977065 -0.94294995 -1.1542265
0.34788018 -1.0598258 1.0491 0.98572195 0.25901586 -0.24058983 -1.3166476 0.7096542
-0.44955 -1.3000498 -0.03397551 -0.082468905 1.0455588 -1.4919053 0.0698535 0.017878562
1.1163145 -0.27633676 0.44508073 0.091357075 0.9827394 -0.7715107 0.22269858 -0.04646515
-0.48030362 -0.8482902 -0.15491268 -0.22827506 -1.124273 0.90515286 -1.3292983 -0.22021249
1.6026443 -1.3058506 -1.0547897 -0.059149686 0.90685993 -1.0465207 -0.36327127 -0.35606262
1.5639435 -0.27907804 0.072239876 0.1672333 -1.0979052 -0.2902006 0.5837593 -0.08284704
0.49673858 0.6609546 0.495308 -2.4635642 -0.8203274 0.30849522 0.6144245 0.67578256
0.65742016 -0.1111179 -0.89571536 0.013360383 -0.34252644 -0.12501045 0.17455971 -1.3004161
1.2969251 0.4008073 0.3013013 0.16540107 0.19370337 -0.7462306 -0.67491126 0.9092455
0.34369805 0.44359908 -2.7673397 0.3755744 -0.24389668 -0.53449565 -0.58537865 0.82583266
-1.068669 0.48744696 0.30551913 -0.4875733 -1.3039668 -0.97680014 -0.13948117 0.42801434
-0.83722484 -3.3545637 -1.0603701 -1.3980289 -1.0781149 -1.1418545 -1.2246976 -2.0699537
-1.2302675 -1.4920527 -1.3566185 -1.6091161 -0.16039287 -1.121608 -3.7215497 -0.9650582
-1.6012144 -0.35069066 -0.8309748 0.030349467 -1.9820462 -0.49747136 -1.2246476 -0.87226987
0.2676914 -0.5639404 -2.5497296 -0.70909536 -0.8483538 -0.58327043 -1.9394745 -0.8026209
-0.18451513 -1.2740395 -0.57645684 -1.1068857 0.16331212 -1.0202 -2.8722527 -2.0474114
-0.9599351 -1.8700655 -1.1364696 -1.1046852 -0.837121 -0.57613444 -1.4608982 -1.1991968
-2.6623812 -1.0304406 -1.1335225 -0.9258675 -0.73524624 -1.3002471 -1.4552567 -1.0733931
-0.609925 -1.009597 -1.4133556 -1.0035344 -1.171945 -1.16929 -1.1507765 -1.3681371
-0.90176976 -1.8606834 -1.0556145 -1.2076217 -1.962429 -1.334455 -1.4637954 -0.7736677
-0.21404098 -1.2186862 -1.511373 -0.6050435 -1.1920065 -0.78053534 -1.8846486 -1.2842622
-1.0779154 -1.9976631 -1.3170276 -0.9484625 -1.8860289 -0.7332832 -1.8071997 -0.48716807
-1.158649 -1.6545699 -1.1309067 -2.4187913 -2.2402425 -0.38722387 -0.7748429 0.019949364
-0.48613778 -0.6665136 -1.1497523 0.38825873 -1.1662674 -1.3469343 -1.3300246 -1.3115772
-1.0522015 -1.1027542 -0.49333066 -1.278261 -1.1260071 -1.0057378 -0.1405991 -1.5099849
-1.2592835 0.71537346 -3.46521 -1.456569 -0.8977238 -1.1418538 -1.7701703 -1.0189004
-1.5793004 -0.11537054 -0.77768683 -1.3895586 -1.1332097 -1.1688167 -2.7743003 -1.122578
00000000: 6664 3b3e e3d7 11c0 d750 c43e f741 e2bf
00000010: a6a3 adbf a48d babd f5eb d43e 856e 4abf
00000020: e9ce 623e 3824 21bf 597f 96bf 96fb e5bf
00000030: f57a 983f 1dfd c7be cede c6bf b849 bebf
00000040: 308e d8bf a8ab 4f3f e5a1 d93e eb8f 91bf
00000050: fc41 04c0 9757 323f 525f babe bbf1 0c3f
00000060: 63be 323f b4bf b53e 424c dfbf 56ac 78be
00000070: 15a3 153f a35a 5f3e 1900 2ec0 5444 563f
00000080: d00d 8d3e 082d 063e 2818 163f 2b2b c33b
00000090: 1789 f93e 7305 6e3f 2b65 71bf b2bd 93bf
000000a0: 5a1d b23e 5fa8 87bf e948 863f 4658 7c3f
000000b0: ba9d 843e 2e5d 76be e987 a8bf e6ab 353f
000000c0: 6b2b e6be 0868 a6bf e829 0bbd 75e5 a8bd
000000d0: dfd4 853f c1f6 bebf 5a0f 8f3d 1076 923c
000000e0: 65e3 8e3f 037c 8dbe 9fe1 e33e 6b19 bb3d
000000f0: cf94 7b3f ba81 45bf 190b 643e 3e52 3ebd
00000100: 5bea f5be 8c29 59bf 6ea1 1ebe f0c0 69be
00000110: 2de8 8fbf 19b8 673f 7226 aabf 627f 61be
00000120: 7323 cd3f 1d26 a7bf 5903 87bf f146 72bd
00000130: f927 683f 64f4 85bf b1fe b9be d74d b6be
00000140: 4d2f c83f 51e3 8ebe 80f2 933d 353f 2b3e
00000150: 2888 8cbf 2c95 94be 4071 153f b5ab a9bd
00000160: 8554 fe3e 5234 293f 0399 fd3e 09ab 1dc0
00000170: fa00 52bf 16f3 9d3e ed4a 1d3f 1600 2d3f
00000180: b04c 283f c891 e3bd 9a4d 65bf 82e5 5a3c
00000190: a05f afbe bd02 00be c8bf 323e 0974 a6bf
000001a0: a401 a63f 9d36 cd3e 2a44 9a3e e65e 293e
000001b0: 2d5a 463e f808 3fbf fcc6 2cbf 50c4 683f
000001c0: 31f9 af3e 6b1f e33e 181c 31c0 4a4b c03e
000001d0: 0dc0 79be b5d4 08bf 60db 15bf c569 533f
000001e0: 25ca 88bf a692 f93e 016d 9c3e 35a3 f9be
000001f0: 62e8 a6bf 930f 7abf 27d4 0ebe b224 db3e
00000200: 5e54 56bf 2cb1 56c0 35ba 87bf 9cf2 b2bf
00000210: abff 89bf 4a28 92bf e4c2 9cbf 1f7a 04c0
00000220: 6879 9dbf 95fb bebf ada5 adbf 84f7 cdbf
00000230: 073e 24be da90 8fbf df2d 6ec0 0e0e 77bf
00000240: 98f4 ccbf ba8d b3be c4ba 54bf 729f f83c
00000250: b1b3 fdbf 91b4 febe 41c1 9cbf 144d 5fbf
00000260: d90e 893e 665e 10bf c52e 23c0 4687 35bf
00000270: b72d 59bf 3651 15bf b340 f8bf 9078 4dbf
00000280: 89f1 3cbe ba13 a3bf ad92 13bf 6eae 8dbf
00000290: 4b3b 273e ea95 82bf fdd2 37c0 ca08 03c0
000002a0: 4fbe 75bf 4e5e efbf d677 91bf 5366 8dbf
000002b0: 904d 56bf 8c7d 13bf b6fe babf 487f 99bf
000002c0: 7464 2ac0 7ae5 83bf 4417 91bf a705 6dbf
000002d0: 1939 3cbf 7f6e a6bf da45 babf f264 89bf
000002e0: 0b24 1cbf 793a 81bf d6e8 b4bf d173 80bf
000002f0: 4b02 96bf 4bab 95bf a54c 93bf 1e1f afbf
00000300: 62da 66bf e02a eebf 601e 87bf 5993 9abf
00000310: e030 fbbf 6ccf aabf a65d bbbf 160f 46bf
00000320: 8f2d 5bbe e9fd 9bbf ac74 c1bf 21e4 1abf
00000330: ab93 98bf 2ad1 47bf 2a3c f1bf b462 a4bf
00000340: 22f9 89bf 6db3 ffbf 5c94 a8bf 70ce 72bf
00000350: 6569 f1bf 73b8 3bbf 5252 e7bf 186e f9be
00000360: 9c4e 94bf f2c8 d3bf 8dc1 90bf 7acd 1ac0
00000370: 2260 0fc0 3542 c6be 1b5c 46bf d96c a33c
00000380: 0de7 f8be a3a0 2abf 152b 93bf d9c9 c63e
00000390: 4048 95bf 5868 acbf 3f3e aabf c3e1 a7bf
000003a0: 8aae 86bf 0d27 8dbf d695 fcbe 0e9e a3bf
000003b0: 0021 90bf 04bc 80bf 36f9 0fbe 2f47 c1bf
000003c0: 3430 a1bf b722 373f 00c6 5dc0 da70 babf
000003d0: 3ad1 65bf 4428 92bf f194 e2bf 546b 82bf
000003e0: 8426 cabf 6447 ecbd 7c16 47bf 0edd b1bf
000003f0: 040d 91bf c99b 95bf 238e 31c0 a3b0 8fbf

weight_ih_l1 f4 [384, 128]
0.6256194 0.5849166 -0.4638788 -0.737685 -1.7590412 -0.51538384 -0.116120085 -0.078756094
-0.8644423 0.45511138 -0.09869544 0.22289178 0.5106309 1.2477988 -0.407561 -0.5610815
-0.05693959 0.4449623 0.8329346 4.155906 0.36994237 0.46684113 0.5127814 1.4966714
0.75978184 -1.1550856 0.21132773 -0.02112952 0.32602498 1.5035392 0.24670199 -1.2449542
-4.250179 3.5633614 2.1771538 0.083880894 3.1280205 2.5595748 -0.10224541 -0.0083457865
1.5745186 0.25888595 0.099738955 -1.5518551 -1.8693243 -0.29412445 0.096913144 0.1210183
0.47423425 2.2819793 -0.75433487 1.5510935 0.068641745 0.37055823 0.49942887 -1.5427052
-0.35433453 1.4909961 -0.67501634 0.51771736 2.2349682 0.035984706 1.8384501 -0.25625736
-3.6184564 0.5700669 -0.75597715 -2.6019082 -0.4354808 -0.6938434 0.8178774 -0.7439523
-1.3549783 -0.71060395 0.13685203 -0.5059569 -0.27484763 0.32081208 0.27975434 -0.11811302
-0.55425704 -0.61525506 0.5002467 -0.05353075 -0.39654416 -0.06825567 2.2803988 -0.8013535
3.5233917 -4.8701954 -3.5756662 -0.48276561 -0.2847842 0.105285265 0.03276041 0.27773115
0.72059894 -0.5661723 -0.055779472 0.34240547 0.24498472 0.60181636 -0.36809856 0.3269029
-0.53731203 2.0204651 0.75232124 -0.04676606 -1.1507651 0.6523372 -1.738909 -0.7547389
-1.077913 -2.3239188 0.52899045 -1.8265905 -6.286541 0.19701351 0.14966084 -0.7270853
-0.014233596 3.4527311 -0.3342221 1.193076 0.4973512 0.5202492 1.548427 -0.007112319
0.7019755 0.34469053 -0.52031916 -1.0253072 -1.7784755 -1.2350402 0.37894556 -0.18903786
-0.9307487 0.31601363 0.15554844 0.15202875 0.13833024 1.1587719 -0.1404677 0.18232062
0.16076095 0.3673662 0.81403536 4.0150504 0.3870225 -0.35320556 0.6511398 1.5839483
0.8260849 -1.2554905 0.3852496 -0.041340776 0.15388925 1.5100697 0.3404501 -1.3030527
-4.201862 3.8462174 2.1019347 -0.3625906 3.0295858 2.5559123 -0.0036170455 0.14073761
1.7324294 0.2059906 -0.21069016 -1.4981467 -2.1113932 -0.34310862 -0.13673927 0.19980845
0.3591789 2.1202216 -0.75940025 1.4795499 0.025316019 0.32072467 0.2962534 -1.5410957
-0.5104728 1.4226807 -0.762321 0.55225587 0.06865609 0.17412932 1.7998452 -0.3274784
-3.2308712 0.34002414 -0.7717374 -2.5465524 -0.51873153 -0.7649161 0.7621317 -0.7973465
-1.2675247 -0.6245209 0.079595156 -0.50484383 -0.30995792 0.37934643 0.12533405 0.0037363027
-0.07709471 -0.96921575 0.44055584 0.40991324 -0.23460108 0.057657655 -0.056259535 -0.20107882
3.5777175 -4.737001 -3.5370991 -0.3632292 -0.29595134 -0.11545335 -0.055776887 0.030214492
0.7558813 -0.41766778 -0.1724561 0.22175886 0.18202032 0.36534107 -0.30590728 0.23824792
-0.12714462 1.8638847 0.6415125 0.3938646 -1.0478219 0.3796272 -1.7052636 -0.87986463
-0.83293873 -2.3616433 0.48177564 -1.7382382 -6.2774196 0.16879328 0.15407847 -0.68634564
-0.20511283 3.4330838 -0.011974172 1.045659 0.15325722 0.6429483 1.6214784 -0.19222042
00000000: 9828 203f 18bd 153f 8681 edbe edd8 3cbf
00000010: 4328 e1bf 32f0 03bf 5ed0 edbd e04a a1bd
00000020: 174c 5dbf 5c04 e93e d620 cabd be3d 643e
00000030: b5b8 023f dfb7 9f3f d6ab d0be 0aa3 0fbf
00000040: 7d39 69bd 19d2 e33e 343b 553f 2ffd 8440
00000050: 1669 bd3e cd05 ef3e a445 033f ee92 bf3f
00000060: 1081 423f d8d9 93bf 4c66 583e d117 adbc
00000070: bfec a63e f973 c03f 729f 7c3e a95a 9fbf
00000080: 7701 88c0 1d0e 6440 7d56 0b40 bfc9 ab3d
00000090: 7d31 4840 13d0 2340 0b66 d1bd c4bc 08bc
000000a0: d389 c93f b38c 843e f043 cc3d 30a3 c6bf
000000b0: 0546 efbf 7b97 96be 667a c63d 71d8 f73d
000000c0: d5ce f23e f30b 1240 171c 41bf 3b8a c63f
000000d0: 0b94 8c3d cfb9 bd3e 24b5 ff3e 5d77 c5bf
000000e0: 566b b5be f6d8 be3f dfcd 2cbf 2089 043f
000000f0: b809 0f40 b364 133d 5552 eb3f 2a34 83be
00000100: ca94 67c0 e8ef 113f b887 41bf aa85 26c0
00000110: 57f7 debe b99f 31bf 6a60 513f a873 3ebf
00000120: ee6f adbf 24ea 35bf f022 0c3e 6486 01bf
00000130: d4b8 8cbe 7b41 a43e f63b 8f3e 3de5 f1bd
00000140: cae3 0dbf 5b81 1dbf 2b10 003f 0f43 5bbd
00000150: d607 cbbe a1c9 8bbd 0ef2 1140 8125 4dbf
00000160: 407f 6140 a4d8 9bc0 b7d7 64c0 0e2d f7be
00000170: 3ccf 91be cd9f d73d c82f 063d c732 8e3e
00000180: 2c79 383f abf0 10bf 0479 64bd c54f af3e
00000190: 46dd 7a3e a310 1a3f 6a77 bcbe d15f a73e
000001a0: 488d 09bf 4d4f 0140 2098 403f c58d 3fbd
000001b0: 454c 93bf 92ff 263f 9294 debf 9236 41bf
000001c0: 0ef9 89bf 16bb 14c0 eb6b 073f b8cd e9bf
000001d0: 582b c9c0 e9bd 493e b140 193e 4322 3abf
000001e0: 0734 69bc 8cf9 5c40 291f abbe b7b6 983f
000001f0: d1a4 fe3e 0d2f 053f db32 c63f 750e e9bb
00000200: abb4 333f 477b b03e a333 05bf 443d 83bf
00000210: 16a5 e3bf cc15 9ebf 2705 c23e 2493 41be
00000220: 8c45 6ebf 8acc a13e 1748 1f3e 6dad 1b3e
00000230: 71a6 0d3e a352 943f c4d6 0fbe 42b2 3a3e
00000240: 859e 243e 6c17 bc3e 9f64 503f 4b7b 8040
00000250: d027 c63e 5cd7 b4be 19b1 263f d1be ca3f
00000260: 4d7a 533f eab3 a0bf 703f c53e f254 29bd
00000270: 2595 1d3e f749 c13f 7a4f ae3e 6eca a6bf
00000280: a775 86c0 6d28 7640 1986 0640 7aa5 b9be
00000290: bce4 4140 1194 2340 f40b 6dbb 851d 103e
000002a0: 3fc0 dd3f 33ef 523e 29bf 57be 45c3 bfbf
000002b0: 1121 07c0 efab afbe 6105 0cbe 969a 4c3e
000002c0: 4ce6 b73e b6b1 0740 0e68 42bf e461 bd3f
000002d0: 8a63 cf3c 0636 a43e 87ae 973e a042 c5bf
000002e0: 58ae 02bf 671a b63f 7827 43bf a460 0d3f
000002f0: 909b 8c3d f54e 323e 5461 e63f 40ab a7be
00000300: 98c6 4ec0 a517 ae3e 9590 45bf b7fa 22c0
00000310: 97cb 04bf 8bd1 43bf 101b 433f e61e 4cbf
00000320: 403e a2bf 9ae0 1fbf c902 a33d 723d 01bf
00000330: ceb2 9ebe b239 c23e 9257 003e c2dc 743b
00000340: d5e3 9dbd 861e 78bf 8990 e13e 26e0 d13e
00000350: 443b 70be 6f2a 6c3d 6670 66bd 9be7 4dbe
00000360: 53f9 6440 8395 97c0 d55f 62c0 2df9 b9be
00000370: ef86 97be ce72 ecbd 4e76 64bd 6284 f73c
00000380: 7081 413f 8dd8 d5be 5598 30be c114 633e
00000390: 8963 3a3e fc0d bb3e e19f 9cbe 43f7 733e
000003a0: 3332 02be c693 ee3f 2a3a 243f 9fa8 c93e
000003b0: 071f 86bf 7f5e c23e 1446 dabf cf3e 61bf
000003c0: 793b 55bf 2a25 17c0 4cab f63e 977e debf
000003d0: 9fe0 c8c0 25d8 2c3e bfc6 1d3e 59b4 2fbf
000003e0: 1909 52be a5b7 5b40 512f 44bc 27d8 853f
000003f0: 76ef 1c3e 4398 243f 9b8c cf3f 6ed5 44be

weight_hh_l1 f4 [384, 128]
-0.14654985 -0.067944795 -0.020453503 -0.03201075 0.10910867 -0.050136775 -0.0035536329 -0.046481483
-0.08685378 0.06723828 0.007844279 -0.07169568 -0.039331563 -0.050762873 -0.014191201 0.010661647
0.1872351 0.008134146 -0.032272972 0.01950084 -0.030090576 0.030294158 0.06578864 -0.0015310484
0.08877528 -0.09828755 -0.010709963 0.08880783 -0.05024354 -0.0850706 0.0018757674 -0.04112603
0.0043949997 0.04049479 0.11634189 -0.15153076 -0.047593266 0.061299954 0.05760786 0.031158919
-0.012418133 -0.0012502595 -0.016875297 0.06828707 -0.031981096 -0.04164212 -0.0027513267 -0.022522563
-0.010052184 0.02754877 -0.025708502 -0.012884212 0.036601763 0.06964907 -0.014117305 0.002529119
0.046677455 0.014232372 -0.057859227 -0.09952554 -0.14034715 -0.13408968 0.04825698 -0.0073629133
0.006444594 -0.056244623 0.034826376 0.043267235 0.09516541 0.00471716 -0.038569525 0.024666253
0.09308109 -0.10849332 -0.031894565 -0.016798344 -0.07055497 0.118095055 -0.16339311 -0.03289301
-0.01932776 0.028090283 -0.019675327 -0.05833944 0.036402285 0.117553264 0.09346435 0.031238582
0.026995685 0.10778131 -0.029955912 0.07197054 -0.06526181 0.0074654766 0.045368847 0.0684908
0.02208345 -0.043849338 -0.085498475 0.044759333 0.1108257 -0.029311247 -0.02506889 0.012798008
0.03855523 0.056287445 -0.11429282 0.05901782 -0.005346931 0.030616377 -0.021278905 -0.026861494
-0.21045849 -0.037584845 -0.071554124 -0.06686161 0.070797354 0.020776708 -0.027126864 0.0072584595
-0.064261205 -0.025151024 -0.14657354 -0.0015368164 -0.04824608 0.007649443 0.08024575 0.046078485
-0.082628444 -0.10216438 -0.0654162 -0.08350034 0.113572106 -0.028982654 -0.013739253 -0.06154546
-0.038535394 0.080334045 0.044208694 -0.0731154 -0.0042390553 -0.020787023 0.035316925 -0.0058582043
0.15403573 0.009272772 -0.017102087 0.03361202 -0.027663657 0.044745106 -0.0036070968 -0.0089454595
0.08184599 -0.08737697 -0.023594752 0.048089743 -0.008182407 -0.12962905 -0.011219557 0.015565216
0.043028716 0.053683374 0.1275703 -0.11514637 -0.032575943 -0.040293425 0.08253867 0.06364501
0.08482918 0.02182409 -0.032690953 0.020636138 -0.059259646 -0.075937234 -0.04932416 -0.023338567
0.03822845 -0.015171957 -0.064771056 0.022399005 0.03466624 0.06828012 -0.0528392 0.02420429
0.055221368 -0.002209712 -0.086272866 -0.06484689 -0.12743302 -0.12591892 0.012284562 0.04651389
0.08246498 0.0066313264 0.026704105 0.032994658 0.047957838 -0.01190026 -0.0055488776 0.034462985
0.0659782 -0.008061153 0.016418219 -0.07079491 -0.040851347 0.05365414 -0.18522942 0.0062146382
-0.021060312 -0.015584055 -0.0027607179 -0.07727349 0.08430347 0.10250625 0.058071908 -0.049672898
0.054706518 0.08751643 -0.030920906 0.108998 -0.037237145 0.08096705 0.07079576 0.035776544
0.05797042 0.011367002 -0.049910996 0.034438886 0.09432869 -0.036731444 -0.038392566 -0.002007635
0.04088656 -0.013519858 -0.07542623 0.020189473 0.0429611 -0.011341141 -0.0004970793 -0.06333441
-0.1391991 0.018262507 -0.11251794 -0.092188135 0.040375616 0.034876894 -0.08820028 0.023314213
-0.06827108 0.040065918 -0.14359234 -0.03869853 -0.07745603 0.028733646 0.10572178 0.033863585
00000000: 2a11 16be a426 8bbd 1b8e a7bc b41d 03bd
00000010: 5e74 df3d 385c 4dbd 11e4 68bb 5e63 3ebd
00000020: 65e0 b1bd 39b4 893d 4a85 003c 2fd5 92bd
00000030: 221a 21bd bbec 4fbd 3682 68bc 30ae 2e3c
00000040: 8fba 3f3e 1545 053c aa30 04bd 3ac0 9f3c
00000050: 8380 f6bc 742b f83c 32bc 863d 76ad c8ba
00000060: d0cf b53d fc4a c9bd d778 2fbc e1e0 b53d
00000070: 2ccc 4dbd 7f39 aebd 4fdc f53a c573 28bd
00000080: ee03 903b dddd 253d a844 ee3d e12a 1bbe
00000090: 28f1 42bd a915 7b3d 38f6 6b3d fd40 ff3c
000000a0: 6d75 4bbc bfdf a3ba 103e 8abc 17da 8b3d
000000b0: 9cfe 02bd ed90 2abd 9a4f 34bb 3d81 b8bc
000000c0: eab1 24bc f5ad e13c a39a d2bc 4d18 53bc
000000d0: bbeb 153d 2ca4 8e3d 454c 67bc 93bf 253b
000000e0: dc30 3f3d e52e 693c ccfd 6cbd 0cd4 cbbd
000000f0: 2ab7 0fbe ce4e 09be 1ca9 453d 9844 f1bb
00000100: 2c2d d33b c360 66bd 1aa6 0e3d fc38 313d
00000110: 15e6 c23d 6892 9a3b 14fb 1dbd e210 ca3c
00000120: 4ca1 be3d bf31 debd e0a3 02bd ae9c 89bc
00000130: 207f 90bd d2db f13d 8650 27be d2ba 06bd
00000140: 4055 9ebc 981d e63c 272e a1bc 56f5 6ebd
00000150: 901a 153d c4bf f03d 3d6a bf3d 0ee8 ff3c
00000160: 0e26 dd3c 73bc dc3d 1a66 f5bc 4a65 933d
00000170: fca7 85bd f5a0 f43b afd4 393d e844 8c3d
00000180: 5ae8 b43c 5d9b 33bd d319 afbd 9055 373d
00000190: 96f8 e23d 241e f0bc 465d cdbc bcae 513c
000001a0: 17ec 1d3d aa8d 663d 5b12 eabd abbc 713d
000001b0: 4f35 afbb 32cf fa3c 1951 aebc a30c dcbc
000001c0: 6e82 57be 91f2 19bd f88a 92bd bdee 88bd
000001d0: 34fe 903d ea33 aa3c 2839 debc 5fd8 ed3b
000001e0: 619b 83bd 8509 cebc 6017 16be 006f c9ba
000001f0: ae9d 45bd 2ea8 fa3b e257 a43d cbbc 3c3d
00000200: 1a39 a9bd 8f3b d1bd eef8 85bd 3a02 abbd
00000210: 7e98 e83d 086d edbc 9b1a 61bc 1817 7cbd
00000220: 4ad7 1dbd 2d86 a43d 2d14 353d 87bd 95bd
00000230: c6e7 8abb 8c49 aabc 7ba8 103d 2ef6 bfbb
00000240: 8bbb 1d3e d3ec 173c ad19 8cbc c2ac 093d
00000250: e59e e2bc a546 373d 0b65 6cbb fa8f 12bc
00000260: df9e a73d b2f2 b2bd c849 c1bc c0f9 443d
00000270: 810f 06bc 7abd 04be 3cd2 37bc 3f05 7f3c
00000280: e13e 303d 19e3 5b3d caa1 023e dcd1 ebbd
00000290: 5a6e 05bd b80a 25bd 090a a93d 5158 823d
000002a0: ecba ad3d 6fc8 b23c f3e6 05bd 1e0d a93c
000002b0: 3eba 72bd fb84 9bbd 2108 4abd 8630 bfbc
000002c0: 6f95 1c3d cd93 78bc b0a6 84bd 1e7e b73c
000002d0: 30fe 0d3d 73d6 8b3d eb6d 58bd 1348 c63c
000002e0: cd2f 623d d1d0 10bb d4af b0bd 72ce 84bd
000002f0: cd7d 02be e4f0 00be 3045 493c 5985 3e3d
00000300: 66e3 a83d 994b d93b 91c2 da3c 6825 073d
00000310: 706f 443d 4ff9 42bc 5cd3 b5bb 0f29 0d3d
00000320: 941f 873d ed12 04bc 807f 863c ecfc 90bd
00000330: be53 27bd 72c4 5b3d c8ac 3dbe 2aa4 cb3b
00000340: ad86 acbc 4454 7fbc 29ed 34bb 9041 9ebd
00000350: 4ca7 ac3d ccee d13d cfdc 6d3d cf75 4bbd
00000360: f113 603d d03b b33d d74d fdbc 583a df3d
00000370: fa85 18bd 0dd2 a53d 5efd 903d 6d8a 123d
00000380: 6472 6d3d a93c 3a3c 796f 4cbd ca0f 0d3d
00000390: 662f c13d b673 16bd 8641 1dbd 8792 03bb
000003a0: aa78 273d 6582 5dbc 1179 9abd 6564 a53c
000003b0: faf7 2f3d 31d0 39bc 6d4e 02ba 79b5 81bd
000003c0: 358a 0ebe 419b 953c ce6f e6bd 22cd bcbd
000003d0: e760 253d 13db 0e3d 59a2 b4bd 73fd be3c
000003e0: b5d1 8bbd 291c 243d df09 13be 5a82 1ebd
000003f0: 44a1 9ebd d362 eb3c a984 d83d 8bb4 0a3d
